…
Call initializer instance with the dtype argument instead of passing it to the constructor
Model: "encoder"
__________________________________________________________________________________________________
Layer (type)                    Output Shape         Param #     Connected to                     
==================================================================================================
encoder_input (InputLayer)      [(None, 32, 32, 1)]  0                                            
__________________________________________________________________________________________________
conv2d (Conv2D)                 (None, 30, 30, 6)    60          encoder_input[0][0]              
__________________________________________________________________________________________________
conv2d_1 (Conv2D)               (None, 28, 28, 10)   550         conv2d[0][0]                     
__________________________________________________________________________________________________
conv2d_2 (Conv2D)               (None, 26, 26, 14)   1274        conv2d_1[0][0]                   
__________________________________________________________________________________________________
average_pooling2d (AveragePooli (None, 13, 13, 14)   0           conv2d_2[0][0]                   
__________________________________________________________________________________________________
flatten (Flatten)               (None, 2366)         0           average_pooling2d[0][0]          
__________________________________________________________________________________________________
dense (Dense)                   (None, 139)          329013      flatten[0][0]                    
__________________________________________________________________________________________________
dense_1 (Dense)                 (None, 56)           7840        dense[0][0]                      
__________________________________________________________________________________________________
z_mean (Dense)                  (None, 10)           570         dense_1[0][0]                    
__________________________________________________________________________________________________
z_log_var (Dense)               (None, 10)           570         dense_1[0][0]                    
__________________________________________________________________________________________________
z (Lambda)                      (None, 10)           0           z_mean[0][0]                     
                                                                 z_log_var[0][0]                  
==================================================================================================
Total params: 339,877
Trainable params: 339,877
Non-trainable params: 0
__________________________________________________________________________________________________
Model: "decoder"
_________________________________________________________________
Layer (type)                 Output Shape              Param #   
=================================================================
z_sampling (InputLayer)      [(None, 10)]              0         
_________________________________________________________________
dense_2 (Dense)              (None, 56)                616       
_________________________________________________________________
dense_3 (Dense)              (None, 139)               7923      
_________________________________________________________________
dense_4 (Dense)              (None, 2366)              331240    
_________________________________________________________________
reshape (Reshape)            (None, 13, 13, 14)        0         
_________________________________________________________________
up_sampling2d (UpSampling2D) (None, 26, 26, 14)        0         
_________________________________________________________________
conv2d_transpose (Conv2DTran (None, 28, 28, 14)        1778      
_________________________________________________________________
conv2d_transpose_1 (Conv2DTr (None, 30, 30, 10)        1270      
_________________________________________________________________
conv2d_transpose_2 (Conv2DTr (None, 32, 32, 6)         546       
_________________________________________________________________
decoder_output (Conv2DTransp (None, 32, 32, 1)         55        
=================================================================
Total params: 343,428
Trainable params: 343,428
Non-trainable params: 0
_________________________________________________________________
Model: "vae"
_________________________________________________________________
Layer (type)                 Output Shape              Param #   
=================================================================
encoder_input (InputLayer)   [(None, 32, 32, 1)]       0         
_________________________________________________________________
encoder (Model)              [(None, 10), (None, 10),  339877    
_________________________________________________________________
decoder (Model)              (None, 32, 32, 1)         343428    
=================================================================
Total params: 683,305
Trainable params: 683,305
Non-trainable params: 0
_________________________________________________________________
Train on 1801071 samples, validate on 600357 samples
2020-06-29 01:42:16.596984: I tensorflow/core/platform/cpu_feature_guard.cc:142] Your CPU supports instructions that this TensorFlow binary was not compiled to use: AVX2 FMA
…
