…
2020-07-29 15:57:40.471164: I tensorflow/core/common_runtime/gpu/gpu_device.cc:1241] Created TensorFlow device (/job:localhost/replica:0/task:0/device:GPU:0 with 10353 MB memory) -> physical GPU (device: 0, name: GeForce GTX 1080 Ti, pci bus id: 0000:05:00.0, compute capability: 6.1)
Model: "encoder"
__________________________________________________________________________________________________
Layer (type)                    Output Shape         Param #     Connected to                     
==================================================================================================
encoder_input (InputLayer)      [(None, 54, 54)]     0                                            
__________________________________________________________________________________________________
lambda (Lambda)                 (None, 54, 54, 1)    0           encoder_input[0][0]              
__________________________________________________________________________________________________
conv2d (Conv2D)                 (None, 52, 52, 16)   160         lambda[0][0]                     
__________________________________________________________________________________________________
average_pooling2d (AveragePooli (None, 26, 26, 16)   0           conv2d[0][0]                     
__________________________________________________________________________________________________
conv2d_1 (Conv2D)               (None, 24, 24, 16)   2320        average_pooling2d[0][0]          
__________________________________________________________________________________________________
average_pooling2d_1 (AveragePoo (None, 12, 12, 16)   0           conv2d_1[0][0]                   
__________________________________________________________________________________________________
conv2d_2 (Conv2D)               (None, 10, 10, 16)   2320        average_pooling2d_1[0][0]        
__________________________________________________________________________________________________
average_pooling2d_2 (AveragePoo (None, 5, 5, 16)     0           conv2d_2[0][0]                   
__________________________________________________________________________________________________
flatten (Flatten)               (None, 400)          0           average_pooling2d_2[0][0]        
__________________________________________________________________________________________________
dense (Dense)                   (None, 128)          51328       flatten[0][0]                    
__________________________________________________________________________________________________
z_mean (Dense)                  (None, 10)           1290        dense[0][0]                      
__________________________________________________________________________________________________
z_log_var (Dense)               (None, 10)           1290        dense[0][0]                      
__________________________________________________________________________________________________
sampling (Sampling)             (None, 10)           0           z_mean[0][0]                     
                                                                 z_log_var[0][0]                  
==================================================================================================
Total params: 58,708
Trainable params: 58,708
Non-trainable params: 0
__________________________________________________________________________________________________
Model: "decoder"
_________________________________________________________________
Layer (type)                 Output Shape              Param #   
=================================================================
z_sampling (InputLayer)      [(None, 10)]              0         
_________________________________________________________________
dense_1 (Dense)              (None, 128)               1408      
_________________________________________________________________
dense_2 (Dense)              (None, 400)               51600     
_________________________________________________________________
reshape (Reshape)            (None, 5, 5, 16)          0         
_________________________________________________________________
up_sampling2d (UpSampling2D) (None, 10, 10, 16)        0         
_________________________________________________________________
conv2d_transpose (Conv2DTran (None, 12, 12, 16)        2320      
_________________________________________________________________
up_sampling2d_1 (UpSampling2 (None, 24, 24, 16)        0         
_________________________________________________________________
conv2d_transpose_1 (Conv2DTr (None, 26, 26, 16)        2320      
_________________________________________________________________
up_sampling2d_2 (UpSampling2 (None, 52, 52, 16)        0         
_________________________________________________________________
conv2d_transpose_2 (Conv2DTr (None, 54, 54, 16)        2320      
_________________________________________________________________
decoder_output (Conv2DTransp (None, 54, 54, 1)         145       
_________________________________________________________________
lambda_1 (Lambda)            (None, 54, 54)            0         
=================================================================
Total params: 60,113
Trainable params: 60,113
Non-trainable params: 0
_________________________________________________________________
Model: "vae"
__________________________________________________________________________________________________
Layer (type)                    Output Shape         Param #     Connected to                     
==================================================================================================
encoder_input (InputLayer)      [(None, 54, 54)]     0                                            
__________________________________________________________________________________________________
lambda (Lambda)                 (None, 54, 54, 1)    0           encoder_input[0][0]              
__________________________________________________________________________________________________
conv2d (Conv2D)                 (None, 52, 52, 16)   160         lambda[0][0]                     
__________________________________________________________________________________________________
average_pooling2d (AveragePooli (None, 26, 26, 16)   0           conv2d[0][0]                     
__________________________________________________________________________________________________
conv2d_1 (Conv2D)               (None, 24, 24, 16)   2320        average_pooling2d[0][0]          
__________________________________________________________________________________________________
average_pooling2d_1 (AveragePoo (None, 12, 12, 16)   0           conv2d_1[0][0]                   
__________________________________________________________________________________________________
conv2d_2 (Conv2D)               (None, 10, 10, 16)   2320        average_pooling2d_1[0][0]        
__________________________________________________________________________________________________
average_pooling2d_2 (AveragePoo (None, 5, 5, 16)     0           conv2d_2[0][0]                   
__________________________________________________________________________________________________
flatten (Flatten)               (None, 400)          0           average_pooling2d_2[0][0]        
__________________________________________________________________________________________________
dense (Dense)                   (None, 128)          51328       flatten[0][0]                    
__________________________________________________________________________________________________
z_mean (Dense)                  (None, 10)           1290        dense[0][0]                      
__________________________________________________________________________________________________
z_log_var (Dense)               (None, 10)           1290        dense[0][0]                      
__________________________________________________________________________________________________
sampling (Sampling)             (None, 10)           0           z_mean[0][0]                     
                                                                 z_log_var[0][0]                  
__________________________________________________________________________________________________
decoder (Model)                 (None, 54, 54)       60113       sampling[0][0]                   
==================================================================================================
Total params: 118,821
Trainable params: 118,821
Non-trainable params: 0
__________________________________________________________________________________________________
Train on 1800000 samples, validate on 600000 samples
Epoch 1/100
2020-07-29 15:57:46.516664: I tensorflow/stream_executor/platform/default/dso_loader.cc:44] Successfully opened dynamic library libcublas.so.10
…
