…
2020-08-04 14:06:25.255822: I tensorflow/core/common_runtime/gpu/gpu_device.cc:1241] Created TensorFlow device (/job:localhost/replica:0/task:0/device:GPU:0 with 10489 MB memory) -> physical GPU (device: 0, name: GeForce GTX 1080 Ti, pci bus id: 0000:05:00.0, compute capability: 6.1)
Model: "encoder"
__________________________________________________________________________________________________
Layer (type)                    Output Shape         Param #     Connected to                     
==================================================================================================
encoder_input (InputLayer)      [(None, 54, 54)]     0                                            
__________________________________________________________________________________________________
dropout (Dropout)               (None, 54, 54)       0           encoder_input[0][0]              
__________________________________________________________________________________________________
lambda (Lambda)                 (None, 54, 54, 1)    0           dropout[0][0]                    
__________________________________________________________________________________________________
conv2d (Conv2D)                 (None, 52, 52, 6)    60          lambda[0][0]                     
__________________________________________________________________________________________________
conv2d_1 (Conv2D)               (None, 50, 50, 10)   550         conv2d[0][0]                     
__________________________________________________________________________________________________
conv2d_2 (Conv2D)               (None, 48, 48, 14)   1274        conv2d_1[0][0]                   
__________________________________________________________________________________________________
average_pooling2d (AveragePooli (None, 24, 24, 14)   0           conv2d_2[0][0]                   
__________________________________________________________________________________________________
flatten (Flatten)               (None, 8064)         0           average_pooling2d[0][0]          
__________________________________________________________________________________________________
dense (Dense)                   (None, 474)          3822810     flatten[0][0]                    
__________________________________________________________________________________________________
dense_1 (Dense)                 (None, 192)          91200       dense[0][0]                      
__________________________________________________________________________________________________
z_mean (Dense)                  (None, 10)           1930        dense_1[0][0]                    
__________________________________________________________________________________________________
z_log_var (Dense)               (None, 10)           1930        dense_1[0][0]                    
__________________________________________________________________________________________________
sampling (Sampling)             (None, 10)           0           z_mean[0][0]                     
                                                                 z_log_var[0][0]                  
==================================================================================================
Total params: 3,919,754
Trainable params: 3,919,754
Non-trainable params: 0
__________________________________________________________________________________________________
Model: "decoder"
_________________________________________________________________
Layer (type)                 Output Shape              Param #   
=================================================================
z_sampling (InputLayer)      [(None, 10)]              0         
_________________________________________________________________
dense_2 (Dense)              (None, 192)               2112      
_________________________________________________________________
dense_3 (Dense)              (None, 474)               91482     
_________________________________________________________________
dense_4 (Dense)              (None, 8064)              3830400   
_________________________________________________________________
reshape (Reshape)            (None, 24, 24, 14)        0         
_________________________________________________________________
up_sampling2d (UpSampling2D) (None, 48, 48, 14)        0         
_________________________________________________________________
conv2d_transpose (Conv2DTran (None, 50, 50, 14)        1778      
_________________________________________________________________
conv2d_transpose_1 (Conv2DTr (None, 52, 52, 10)        1270      
_________________________________________________________________
conv2d_transpose_2 (Conv2DTr (None, 54, 54, 6)         546       
_________________________________________________________________
dropout_1 (Dropout)          (None, 54, 54, 6)         0         
_________________________________________________________________
decoder_output (Conv2DTransp (None, 54, 54, 1)         55        
_________________________________________________________________
lambda_1 (Lambda)            (None, 54, 54)            0         
=================================================================
Total params: 3,927,643
Trainable params: 3,927,643
Non-trainable params: 0
_________________________________________________________________
Model: "vae"
__________________________________________________________________________________________________
Layer (type)                    Output Shape         Param #     Connected to                     
==================================================================================================
encoder_input (InputLayer)      [(None, 54, 54)]     0                                            
__________________________________________________________________________________________________
dropout (Dropout)               (None, 54, 54)       0           encoder_input[0][0]              
__________________________________________________________________________________________________
lambda (Lambda)                 (None, 54, 54, 1)    0           dropout[0][0]                    
__________________________________________________________________________________________________
conv2d (Conv2D)                 (None, 52, 52, 6)    60          lambda[0][0]                     
__________________________________________________________________________________________________
conv2d_1 (Conv2D)               (None, 50, 50, 10)   550         conv2d[0][0]                     
__________________________________________________________________________________________________
conv2d_2 (Conv2D)               (None, 48, 48, 14)   1274        conv2d_1[0][0]                   
__________________________________________________________________________________________________
average_pooling2d (AveragePooli (None, 24, 24, 14)   0           conv2d_2[0][0]                   
__________________________________________________________________________________________________
flatten (Flatten)               (None, 8064)         0           average_pooling2d[0][0]          
__________________________________________________________________________________________________
dense (Dense)                   (None, 474)          3822810     flatten[0][0]                    
__________________________________________________________________________________________________
dense_1 (Dense)                 (None, 192)          91200       dense[0][0]                      
__________________________________________________________________________________________________
z_mean (Dense)                  (None, 10)           1930        dense_1[0][0]                    
__________________________________________________________________________________________________
z_log_var (Dense)               (None, 10)           1930        dense_1[0][0]                    
__________________________________________________________________________________________________
sampling (Sampling)             (None, 10)           0           z_mean[0][0]                     
                                                                 z_log_var[0][0]                  
__________________________________________________________________________________________________
decoder (Model)                 (None, 54, 54)       3927643     sampling[0][0]                   
==================================================================================================
Total params: 7,847,397
Trainable params: 7,847,397
Non-trainable params: 0
__________________________________________________________________________________________________
Train on 1800000 samples, validate on 600000 samples
Epoch 1/100
2020-08-04 14:06:28.577444: I tensorflow/stream_executor/platform/default/dso_loader.cc:44] Successfully opened dynamic library libcublas.so.10
…
