…
Call initializer instance with the dtype argument instead of passing it to the constructor
Model: "encoder"
__________________________________________________________________________________________________
Layer (type)                    Output Shape         Param #     Connected to                     
==================================================================================================
encoder_input (InputLayer)      [(None, 100, 3)]     0                                            
__________________________________________________________________________________________________
lambda (Lambda)                 (None, 100, 3, 1)    0           encoder_input[0][0]              
__________________________________________________________________________________________________
conv2d (Conv2D)                 (None, 98, 1, 6)     60          lambda[0][0]                     
__________________________________________________________________________________________________
lambda_1 (Lambda)               (None, 98, 6)        0           conv2d[0][0]                     
__________________________________________________________________________________________________
conv1d (Conv1D)                 (None, 96, 10)       190         lambda_1[0][0]                   
__________________________________________________________________________________________________
conv1d_1 (Conv1D)               (None, 94, 14)       434         conv1d[0][0]                     
__________________________________________________________________________________________________
average_pooling1d (AveragePooli (None, 47, 14)       0           conv1d_1[0][0]                   
__________________________________________________________________________________________________
flatten (Flatten)               (None, 658)          0           average_pooling1d[0][0]          
__________________________________________________________________________________________________
dense (Dense)                   (None, 38)           25042       flatten[0][0]                    
__________________________________________________________________________________________________
dense_1 (Dense)                 (None, 15)           585         dense[0][0]                      
__________________________________________________________________________________________________
z_mean (Dense)                  (None, 10)           160         dense_1[0][0]                    
__________________________________________________________________________________________________
z_log_var (Dense)               (None, 10)           160         dense_1[0][0]                    
__________________________________________________________________________________________________
z (Lambda)                      (None, 10)           0           z_mean[0][0]                     
                                                                 z_log_var[0][0]                  
==================================================================================================
Total params: 26,631
Trainable params: 26,631
Non-trainable params: 0
__________________________________________________________________________________________________
…
RBOSITY=10`) and attach the full output. Cause: converting <bound method Conv1DTranspose.call of <vae.vae_3Dloss_model.Conv1DTranspose object at 0x7f0c39019320>>: AssertionError: Bad argument number for Name: 3, expecting 4
Model: "decoder"
_________________________________________________________________
Layer (type)                 Output Shape              Param #   
=================================================================
z_sampling (InputLayer)      [(None, 10)]              0         
_________________________________________________________________
dense_2 (Dense)              (None, 15)                165       
_________________________________________________________________
dense_3 (Dense)              (None, 38)                608       
_________________________________________________________________
dense_4 (Dense)              (None, 658)               25662     
_________________________________________________________________
reshape (Reshape)            (None, 47, 14)            0         
_________________________________________________________________
up_sampling1d (UpSampling1D) (None, 94, 14)            0         
_________________________________________________________________
conv1d_transpose (Conv1DTran (None, 96, 10)            430       
_________________________________________________________________
conv1d_transpose_1 (Conv1DTr (None, 98, 6)             186       
_________________________________________________________________
lambda_6 (Lambda)            (None, 98, 1, 6)          0         
_________________________________________________________________
conv_2d_transpose (Conv2DTra (None, 100, 3, 1)         55        
_________________________________________________________________
decoder_output (Lambda)      (None, 100, 3)            0         
=================================================================
Total params: 27,106
Trainable params: 27,106
Non-trainable params: 0
_________________________________________________________________
WARNING:tensorflow:Entity <bound method Conv1DTranspose.call of <vae.vae_3Dloss_model.Conv1DTranspose object at 0x7f0c391047f0>> could not be transformed and will be executed as-is. Please
…
