…
2020-07-29 15:18:46.779959: I tensorflow/core/common_runtime/gpu/gpu_device.cc:1241] Created TensorFlow device (/job:localhost/replica:0/task:0/device:GPU:0 with 10481 MB memory) -> physical GPU (device: 0, name: GeForce GTX 1080 Ti, pci bus id: 0000:04:00.0, compute capability: 6.1)
Model: "encoder"
__________________________________________________________________________________________________
Layer (type)                    Output Shape         Param #     Connected to                     
==================================================================================================
encoder_input (InputLayer)      [(None, 54, 54)]     0                                            
__________________________________________________________________________________________________
lambda (Lambda)                 (None, 54, 54, 1)    0           encoder_input[0][0]              
__________________________________________________________________________________________________
conv2d (Conv2D)                 (None, 52, 52, 32)   320         lambda[0][0]                     
__________________________________________________________________________________________________
average_pooling2d (AveragePooli (None, 26, 26, 32)   0           conv2d[0][0]                     
__________________________________________________________________________________________________
conv2d_1 (Conv2D)               (None, 24, 24, 32)   9248        average_pooling2d[0][0]          
__________________________________________________________________________________________________
average_pooling2d_1 (AveragePoo (None, 12, 12, 32)   0           conv2d_1[0][0]                   
__________________________________________________________________________________________________
conv2d_2 (Conv2D)               (None, 10, 10, 32)   9248        average_pooling2d_1[0][0]        
__________________________________________________________________________________________________
average_pooling2d_2 (AveragePoo (None, 5, 5, 32)     0           conv2d_2[0][0]                   
__________________________________________________________________________________________________
flatten (Flatten)               (None, 800)          0           average_pooling2d_2[0][0]        
__________________________________________________________________________________________________
dense (Dense)                   (None, 128)          102528      flatten[0][0]                    
__________________________________________________________________________________________________
z_mean (Dense)                  (None, 10)           1290        dense[0][0]                      
__________________________________________________________________________________________________
z_log_var (Dense)               (None, 10)           1290        dense[0][0]                      
__________________________________________________________________________________________________
sampling (Sampling)             (None, 10)           0           z_mean[0][0]                     
                                                                 z_log_var[0][0]                  
==================================================================================================
Total params: 123,924
Trainable params: 123,924
Non-trainable params: 0
__________________________________________________________________________________________________
Model: "decoder"
_________________________________________________________________
Layer (type)                 Output Shape              Param #   
=================================================================
z_sampling (InputLayer)      [(None, 10)]              0         
_________________________________________________________________
dense_1 (Dense)              (None, 128)               1408      
_________________________________________________________________
dense_2 (Dense)              (None, 800)               103200    
_________________________________________________________________
reshape (Reshape)            (None, 5, 5, 32)          0         
_________________________________________________________________
up_sampling2d (UpSampling2D) (None, 10, 10, 32)        0         
_________________________________________________________________
conv2d_transpose (Conv2DTran (None, 12, 12, 32)        9248      
_________________________________________________________________
up_sampling2d_1 (UpSampling2 (None, 24, 24, 32)        0         
_________________________________________________________________
conv2d_transpose_1 (Conv2DTr (None, 26, 26, 32)        9248      
_________________________________________________________________
up_sampling2d_2 (UpSampling2 (None, 52, 52, 32)        0         
_________________________________________________________________
conv2d_transpose_2 (Conv2DTr (None, 54, 54, 32)        9248      
_________________________________________________________________
decoder_output (Conv2DTransp (None, 54, 54, 1)         289       
_________________________________________________________________
lambda_1 (Lambda)            (None, 54, 54)            0         
=================================================================
Total params: 132,641
Trainable params: 132,641
Non-trainable params: 0
_________________________________________________________________
Model: "vae"
__________________________________________________________________________________________________
Layer (type)                    Output Shape         Param #     Connected to                     
==================================================================================================
encoder_input (InputLayer)      [(None, 54, 54)]     0                                            
__________________________________________________________________________________________________
lambda (Lambda)                 (None, 54, 54, 1)    0           encoder_input[0][0]              
__________________________________________________________________________________________________
conv2d (Conv2D)                 (None, 52, 52, 32)   320         lambda[0][0]                     
__________________________________________________________________________________________________
average_pooling2d (AveragePooli (None, 26, 26, 32)   0           conv2d[0][0]                     
__________________________________________________________________________________________________
conv2d_1 (Conv2D)               (None, 24, 24, 32)   9248        average_pooling2d[0][0]          
__________________________________________________________________________________________________
average_pooling2d_1 (AveragePoo (None, 12, 12, 32)   0           conv2d_1[0][0]                   
__________________________________________________________________________________________________
conv2d_2 (Conv2D)               (None, 10, 10, 32)   9248        average_pooling2d_1[0][0]        
__________________________________________________________________________________________________
average_pooling2d_2 (AveragePoo (None, 5, 5, 32)     0           conv2d_2[0][0]                   
__________________________________________________________________________________________________
flatten (Flatten)               (None, 800)          0           average_pooling2d_2[0][0]        
__________________________________________________________________________________________________
dense (Dense)                   (None, 128)          102528      flatten[0][0]                    
__________________________________________________________________________________________________
z_mean (Dense)                  (None, 10)           1290        dense[0][0]                      
__________________________________________________________________________________________________
z_log_var (Dense)               (None, 10)           1290        dense[0][0]                      
__________________________________________________________________________________________________
sampling (Sampling)             (None, 10)           0           z_mean[0][0]                     
                                                                 z_log_var[0][0]                  
__________________________________________________________________________________________________
decoder (Model)                 (None, 54, 54)       132641      sampling[0][0]                   
==================================================================================================
Total params: 256,565
Trainable params: 256,565
Non-trainable params: 0
__________________________________________________________________________________________________
Train on 1800000 samples, validate on 600000 samples
Epoch 1/100
2020-07-29 15:18:49.556715: I tensorflow/stream_executor/platform/default/dso_loader.cc:44] Successfully opened dynamic library libcublas.so.10
…
