…
read  1200714  jet 1 images and  1200714  jet 2 images
WARNING:tensorflow:From /afs/cern.ch/work/k/kiwoznia/.local/lib/python3.6/site-packages/keras/backend/tensorflow_backend.py:4074: The name tf.nn.avg_pool is deprecated. Please use tf.nn.avg_pool2d instead.

Model: "encoder"
__________________________________________________________________________________________________
Layer (type)                    Output Shape         Param #     Connected to                     
==================================================================================================
encoder_input (InputLayer)      (None, 32, 32, 1)    0                                            
__________________________________________________________________________________________________
conv2d_1 (Conv2D)               (None, 30, 30, 4)    40          encoder_input[0][0]              
__________________________________________________________________________________________________
conv2d_2 (Conv2D)               (None, 28, 28, 8)    296         conv2d_1[0][0]                   
__________________________________________________________________________________________________
conv2d_3 (Conv2D)               (None, 26, 26, 12)   876         conv2d_2[0][0]                   
__________________________________________________________________________________________________
average_pooling2d_1 (AveragePoo (None, 13, 13, 12)   0           conv2d_3[0][0]                   
__________________________________________________________________________________________________
flatten_1 (Flatten)             (None, 2028)         0           average_pooling2d_1[0][0]        
__________________________________________________________________________________________________
dense_1 (Dense)                 (None, 119)          241451      flatten_1[0][0]                  
__________________________________________________________________________________________________
dense_2 (Dense)                 (None, 48)           5760        dense_1[0][0]                    
__________________________________________________________________________________________________
z_mean (Dense)                  (None, 10)           490         dense_2[0][0]                    
__________________________________________________________________________________________________
z_log_var (Dense)               (None, 10)           490         dense_2[0][0]                    
__________________________________________________________________________________________________
z (Lambda)                      (None, 10)           0           z_mean[0][0]                     
                                                                 z_log_var[0][0]                  
==================================================================================================
Total params: 249,403
Trainable params: 249,403
Non-trainable params: 0
__________________________________________________________________________________________________
Model: "decoder"
_________________________________________________________________
Layer (type)                 Output Shape              Param #   
=================================================================
z_sampling (InputLayer)      (None, 10)                0         
_________________________________________________________________
dense_3 (Dense)              (None, 48)                528       
_________________________________________________________________
dense_4 (Dense)              (None, 119)               5831      
_________________________________________________________________
dense_5 (Dense)              (None, 2028)              243360    
_________________________________________________________________
reshape_1 (Reshape)          (None, 13, 13, 12)        0         
_________________________________________________________________
up_sampling2d_1 (UpSampling2 (None, 26, 26, 12)        0         
_________________________________________________________________
conv2d_transpose_1 (Conv2DTr (None, 28, 28, 12)        1308      
_________________________________________________________________
conv2d_transpose_2 (Conv2DTr (None, 30, 30, 8)         872       
_________________________________________________________________
conv2d_transpose_3 (Conv2DTr (None, 32, 32, 4)         292       
_________________________________________________________________
decoder_output (Conv2DTransp (None, 32, 32, 1)         37        
=================================================================
Total params: 252,228
Trainable params: 252,228
Non-trainable params: 0
_________________________________________________________________
Model: "vae"
_________________________________________________________________
Layer (type)                 Output Shape              Param #   
=================================================================
encoder_input (InputLayer)   (None, 32, 32, 1)         0         
_________________________________________________________________
encoder (Model)              [(None, 10), (None, 10),  249403    
_________________________________________________________________
decoder (Model)              (None, 32, 32, 1)         252228    
=================================================================
Total params: 501,631
Trainable params: 501,631
Non-trainable params: 0
_________________________________________________________________
WARNING:tensorflow:From /afs/cern.ch/work/k/kiwoznia/.local/lib/python3.6/site-packages/tensorflow/python/ops/math_grad.py:1250: add_dispatch_support.<locals>.wrapper (from tensorflow.python.ops.array_ops) is deprecated and will be removed in a future version.
…
