…
computed mean [-2.5694157e-04  3.9219353e-07  3.1619492e+00] and std-dev [ 0.23610476  0.23951028 14.948415  ]
Model: "encoder"
__________________________________________________________________________________________________
Layer (type)                    Output Shape         Param #     Connected to                     
==================================================================================================
encoder_input (InputLayer)      [(None, 100, 3)]     0                                            
__________________________________________________________________________________________________
Std_Normalize (StdNormalization (None, 100, 3)       0           encoder_input[0][0]              
__________________________________________________________________________________________________
lambda (Lambda)                 (None, 100, 3, 1)    0           Std_Normalize[0][0]              
__________________________________________________________________________________________________
conv2d (Conv2D)                 (None, 98, 1, 6)     60          lambda[0][0]                     
__________________________________________________________________________________________________
lambda_1 (Lambda)               (None, 98, 6)        0           conv2d[0][0]                     
__________________________________________________________________________________________________
conv1d (Conv1D)                 (None, 96, 10)       190         lambda_1[0][0]                   
__________________________________________________________________________________________________
conv1d_1 (Conv1D)               (None, 94, 14)       434         conv1d[0][0]                     
__________________________________________________________________________________________________
average_pooling1d (AveragePooli (None, 47, 14)       0           conv1d_1[0][0]                   
__________________________________________________________________________________________________
flatten (Flatten)               (None, 658)          0           average_pooling1d[0][0]          
__________________________________________________________________________________________________
dense (Dense)                   (None, 204)          134436      flatten[0][0]                    
__________________________________________________________________________________________________
dense_1 (Dense)                 (None, 48)           9840        dense[0][0]                      
__________________________________________________________________________________________________
z_mean (Dense)                  (None, 12)           588         dense_1[0][0]                    
__________________________________________________________________________________________________
z_log_var (Dense)               (None, 12)           588         dense_1[0][0]                    
__________________________________________________________________________________________________
sampling (Sampling)             (None, 12)           0           z_mean[0][0]                     
                                                                 z_log_var[0][0]                  
==================================================================================================
Total params: 146,136
Trainable params: 146,136
Non-trainable params: 0
__________________________________________________________________________________________________
…
