…
computed mean [-2.5694157e-04  3.9219353e-07  3.1619492e+00] and std-dev [ 0.23610476  0.23951028 14.948415  ]
Model: "encoder"
__________________________________________________________________________________________________
Layer (type)                    Output Shape         Param #     Connected to                     
==================================================================================================
encoder_input (InputLayer)      [(None, 100, 3)]     0                                            
__________________________________________________________________________________________________
lambda (Lambda)                 (None, 100, 3)       0           encoder_input[0][0]              
__________________________________________________________________________________________________
lambda_1 (Lambda)               (None, 100, 3, 1)    0           lambda[0][0]                     
__________________________________________________________________________________________________
conv2d (Conv2D)                 (None, 98, 1, 6)     60          lambda_1[0][0]                   
__________________________________________________________________________________________________
lambda_2 (Lambda)               (None, 98, 6)        0           conv2d[0][0]                     
__________________________________________________________________________________________________
conv1d (Conv1D)                 (None, 96, 10)       190         lambda_2[0][0]                   
__________________________________________________________________________________________________
conv1d_1 (Conv1D)               (None, 94, 14)       434         conv1d[0][0]                     
__________________________________________________________________________________________________
average_pooling1d (AveragePooli (None, 47, 14)       0           conv1d_1[0][0]                   
__________________________________________________________________________________________________
flatten (Flatten)               (None, 658)          0           average_pooling1d[0][0]          
__________________________________________________________________________________________________
dense (Dense)                   (None, 170)          112030      flatten[0][0]                    
__________________________________________________________________________________________________
dense_1 (Dense)                 (None, 40)           6840        dense[0][0]                      
__________________________________________________________________________________________________
z_mean (Dense)                  (None, 10)           410         dense_1[0][0]                    
__________________________________________________________________________________________________
z_log_var (Dense)               (None, 10)           410         dense_1[0][0]                    
__________________________________________________________________________________________________
sampling (Sampling)             (None, 10)           0           z_mean[0][0]                     
                                                                 z_log_var[0][0]                  
==================================================================================================
Total params: 120,374
Trainable params: 120,374
Non-trainable params: 0
__________________________________________________________________________________________________
Model: "decoder"
_________________________________________________________________
Layer (type)                 Output Shape              Param #   
=================================================================
z_sampling (InputLayer)      [(None, 10)]              0         
_________________________________________________________________
dense_2 (Dense)              (None, 40)                440       
_________________________________________________________________
dense_3 (Dense)              (None, 170)               6970      
_________________________________________________________________
dense_4 (Dense)              (None, 658)               112518    
_________________________________________________________________
reshape (Reshape)            (None, 47, 14)            0         
_________________________________________________________________
up_sampling1d (UpSampling1D) (None, 94, 14)            0         
_________________________________________________________________
conv1d_transpose (Conv1DTran (None, 96, 10)            430       
_________________________________________________________________
conv1d_transpose_1 (Conv1DTr (None, 98, 6)             186       
_________________________________________________________________
lambda_7 (Lambda)            (None, 98, 1, 6)          0         
_________________________________________________________________
conv_2d_transpose (Conv2DTra (None, 100, 3, 1)         55        
_________________________________________________________________
lambda_8 (Lambda)            (None, 100, 3)            0         
_________________________________________________________________
un_normalized_decoder_out (L (None, 100, 3)            0         
=================================================================
Total params: 120,599
Trainable params: 120,599
Non-trainable params: 0
_________________________________________________________________
Model: "vae"
_________________________________________________________________
Layer (type)                 Output Shape              Param #   
=================================================================
model_input (InputLayer)     [(None, 100, 3)]          0         
_________________________________________________________________
encoder (Functional)         [(None, 10), (None, 10),  120374    
_________________________________________________________________
decoder (Functional)         (None, 100, 3)            120599    
=================================================================
Total params: 240,973
Trainable params: 240,973
Non-trainable params: 0
_________________________________________________________________

### [26.12 20:15:50] Start of epoch 0
2020-12-26 20:16:15.123627: I tensorflow/stream_executor/platform/default/dso_loader.cc:48] Successfully opened dynamic library libcublas.so.10
2020-12-26 20:16:15.370499: I tensorflow/stream_executor/platform/default/dso_loader.cc:48] Successfully opened dynamic library libcudnn.so.7
…
